…
reate_conv_dropout_model(conv1_filters=32,\n                              conv2_filters=64,\n                              dense_size=128,\n                              only_digits: bool = True) -> tf.keras.Model:\n  \"\"\"Create a convolutional network with dropout.\n\n  When `only_digits=True`, the summary of returned model is\n  ```\n  Model: \"sequential\"\n  _________________________________________________________________\n  Layer (type)                 Output Shape              Param #\n  =================================================================\n  reshape (Reshape)            (None, 28, 28, 1)         0\n  _________________________________________________________________\n  conv2d (Conv2D)              (None, 26, 26, 32)        320\n  _________________________________________________________________\n  conv2d_1 (Conv2D)            (None, 24, 24, 64)        18496\n  _________________________________________________________________\n  max_pooling2d (MaxPooling2D) (None, 12, 12, 64)        0\n  _________________________________________________________________\n  dropout (Dropout)            (None, 12, 12, 64)        0\n  _________________________________________________________________\n  flatten (Flatten)            (None, 9216)              0\n  _________________________________________________________________\n  dense (Dense)                (None, 128)               1179776\n  _________________________________________________________________\n  dropout_1 (Dropout)          (None, 128)               0\n  _________________________________________________________________\n  dense_1 (Dense)              (None, 10)                1290\n  =================================================================\n  Total params: 1,199,882\n  Trainable params: 1,199,882\n  Non-trainable params: 0\n  ```\n  For `only_digits=False`, the last dense layer is slightly larger.\n\n  Args:\n    conv1_filters: The number of convolutional filters in the 1st convolutional\n      layer\n    conv2_filters: The number of convolutional filters in the 2
…
\"\"Create a convolutional network without dropout.\n\n  This recreates the CNN model used in the original FedAvg paper,\n  https://arxiv.org/abs/1602.05629. The number of parameters when\n  `only_digits=True` is (1,663,370), which matches what is reported in the\n  paper. When `only_digits=True`, the summary of returned model is\n  ```\n  Model: \"sequential\"\n  _________________________________________________________________\n  Layer (type)                 Output Shape              Param #\n  =================================================================\n  reshape (Reshape)            (None, 28, 28, 1)         0\n  _________________________________________________________________\n  conv2d (Conv2D)              (None, 28, 28, 32)        832\n  _________________________________________________________________\n  max_pooling2d (MaxPooling2D) (None, 14, 14, 32)        0\n  _________________________________________________________________\n  conv2d_1 (Conv2D)            (None, 14, 14, 64)        51264\n  _________________________________________________________________\n  max_pooling2d_1 (MaxPooling2 (None, 7, 7, 64)          0\n  _________________________________________________________________\n  flatten (Flatten)            (None, 3136)              0\n  _________________________________________________________________\n  dense (Dense)                (None, 512)               1606144\n  _________________________________________________________________\n  dense_1 (Dense)              (None, 10)                5130\n  =================================================================\n  Total params: 1,663,370\n  Trainable params: 1,663,370\n  Non-trainable params: 0\n  ```\n  For `only_digits=False`, the last dense layer is slightly larger.\n\n  Args:\n    conv1_filters: The number of convolutional filters in the 1st convolutional\n      layer\n    conv2_filters: The number of convolutional filters in the 2
…
